trippy/models/eye_state.onnx (onnx, 115097 bytes, 19 tensors)

base_model.features.0.block.6.fc.0.weight f4 [16, 128, 1, 1]
00000000: d61d 2abd 3ee6 373f 813e 9dbe af60 143f
00000010: 216e 4a3f 15ad 373f 3e6f 003f 95ac 043d
00000020: fdf0 0f3e c9cf 103d 50d3 453e d1fe 0abe
00000030: 036e 153f ec48 593e be38 b9bd 942e 8abe
00000040: 165f 1f3e 19e2 823e 3469 693e e407 b53d
00000050: 6113 f33e 74ee a43e 6a50 2cbe c00b c7bd
00000060: e859 7dbd 7468 0c3f 9107 64bc b7f6 033f
00000070: f40c 25be e15e a3bc 93f5 76be bf51 10be
00000080: 9775 6d3b d614 6dbe 1a8b a3bd c304 4e3a
00000090: eef7 823e 9f36 ea3e c56f 2ebe c0d4 9bbe
000000a0: 814c c9bd 7f93 95be bd42 0c3f 8e41 933e
000000b0: 7d5b 823e f699 1d3d b27e 803e 61fb 263e
000000c0: 7c94 9fbe 9cdb 56be abf9 153c 7742 c23e
000000d0: 6553 fe3e c912 68bd bd28 493f 3b95 893d
000000e0: d259 c5be 810a 17bd 223b e4be 7d44 283e
000000f0: fa4d 23be 42e9 5f3f 3fff 3b3d f87b 68bf
00000100: 71b0 343b 5b05 df3e c5c1 b83e bc46 ae3e
00000110: 0538 d6bd 9029 d6be e050 933c 53e5 5abe
00000120: 9fdd 25be 6c51 0bbe 6033 313d f730 803e
00000130: eb45 eb3e 8a5c 073f b584 153e c754 45bd
00000140: d119 e63e 7841 efbd d242 eebe cd13 033e
00000150: 91f8 713c f7cf 0cbf 1cfe ac3e ca91 ee3e
00000160: 327a eabe 8539 8cbe 57bd fcbd ddd8 533f
00000170: 620c df3c 655d e43d df39 3abc 158e 0abe
00000180: d02c d33e ce6e c3be a705 233f ec27 1f3e
00000190: 53d6 5dbe a788 91be 9597 5c3e 4ea2 c3be
000001a0: 50c0 753e cb36 e5be 6bce c33d f757 223f
000001b0: 3184 27be ee36 753e 1106 163f b445 b03e
000001c0: 3854 1abe 02d2 93bd 69a0 bdbd 1ce0 ab3e
000001d0: fe52 34be a011 e43d 2626 ed3e 0502 993e
000001e0: d7c0 ecbe 0add 5fbe 34d8 16be 2e8e 5dbd
000001f0: 8a56 833e ddad e8bd e202 8dbe a19f 113f
00000200: 9053 963e 6815 ecbd a505 03bf 346c 22bf
00000210: 4c5b 8cbe 76d7 ffbe 9676 4cbe c16f eabd
00000220: 6bba 04bc 6b81 ae3e ffc7 bbbe e5d7 fbbe
00000230: 3ac5 793c 4331 72be fa5b 953e d6d1 c1be
00000240: f7e8 323e 1b96 92be 1386 cabe da81 92bd
00000250: 732d 5b3d a2d2 97bc 8738 323d abb9 d53e
00000260: 9c04 573f 7efd 37be 6200 4b3e 15f0 65be
00000270: 0d1e 54bd c3b1 803f 9e36 9bbd 7329 833f
00000280: 0cb5 14bf 5fad f63e 21bb 2c3d 0c32 623e
00000290: 76da f5bb b11b 5a3e 8169 a6bc bc3c ddbe
000002a0: 01b4 44be b038 9ebe 4042 783f 6b4e aa3e
000002b0: 3ec3 6e3f 0e52 3bbe 8c37 ddbe a107 f6bd
000002c0: 6873 253f c1be 35bf 1402 b43d f5ac b73d
000002d0: 4d64 21be 95b4 9cbe b6fd 75be 7c16 44be
000002e0: 8734 0bbe 76ff bd3d 3662 f7ba c807 9a3e
000002f0: 707e bc3e 6975 273e c525 413d 03b0 19be
00000300: 1c7a ffbd f55e a4bc e72e 1d3e 218e ccbe
00000310: fad2 40be 42ab 19bd 7c61 883e fe74 1fbf
00000320: 3ad5 343f bd99 453e 3529 043f 85e8 cb3e
00000330: 3bbb 0dbf 5bff efbd f3e1 9d3d 00f4 d03d
00000340: b7fc 6c3c a815 933d 80df 05bf 3f12 4abe
00000350: 10bd 1fbf 012f 77bb 5551 52be 5cd6 6fbf
00000360: d835 6cbd 4465 e1be 5a10 f83d 4396 053f
00000370: 55e7 6bbd abd9 023e e850 4b3f e120 843e
00000380: c966 08be fe32 6fbe 7706 133f 1d39 983e
00000390: fe76 f2bc c8e8 42be a21d e4be 1499 1b3f
000003a0: 914a 6f3e cda6 e93d 4765 03be ff8c 56bd
000003b0: 6bbd 34bf 8b4f ffbe 1053 93be c4b9 9b3e
000003c0: 991c 81be de13 f83e 458c d03e 31bd 163c
000003d0: 95e6 b1bd 5187 c53e 45cb 483d 63fc 743e
000003e0: c0e4 1e3f 71e7 88bd 33be 5a3e a77f 1dbd
000003f0: 3ebd f0be f70a 023f 1bcf 0b3f 701b 71bf
-0.04153236 0.71835697 -0.3071175 0.5796003 0.79074293 0.7174848 0.5016974 0.03239115
0.14056773 0.03535441 0.1931889 -0.13573767 0.5837099 0.21219224 -0.09044026 -0.2698866
0.15563616 0.25563124 0.22794038 0.08839396 0.47475722 0.32213175 -0.1682755 -0.09719038
-0.06185332 0.5484688 -0.01391782 0.5154833 -0.16118222 -0.019942703 -0.24117117 -0.14093684
0.003623342 -0.2315248 -0.07985516 0.0007858986 0.2557978 0.45744798 -0.17034824 -0.30435753
-0.09829045 -0.29214093 0.54789335 0.28760952 0.25460425 0.038476907 0.2509666 0.16306831
-0.31167972 -0.20982212 0.009153764 0.37941334 0.49673 -0.05665854 0.78577787 0.067179166
-0.3854509 -0.03687525 -0.44576365 0.16432376 -0.15947714 0.874653 0.04589772 -0.9081416
0.0027570988 0.43558773 0.36085334 0.3403834 -0.10459904 -0.41828585 0.0179829 -0.21376543
-0.16197823 -0.13605279 0.043261886 0.25037357 0.4595178 0.5287558 0.14601405 -0.048176553
0.4494157 -0.11682409 -0.46535355 0.12800522 0.0147687355 -0.5500483 0.3378762 0.46595603
-0.45796353 -0.27387634 -0.12340801 0.8275278 0.027227584 0.11150626 -0.011366337 -0.13530762
0.41245127 -0.38170475 0.636805 0.15542573 -0.2166379 -0.2842457 0.21542199 -0.38209766
0.23999143 -0.44768366 0.095608555 0.63415474 -0.16359021 0.23946735 0.58603007 0.3442818
-0.1507119 -0.0721779 -0.092591114 0.3356942 -0.17609784 0.11136174 0.46318167 0.29884353
-0.46240875 -0.21861663 -0.14730912 -0.05409067 0.25651962 -0.11361287 -0.27541262 0.568842
0.29360628 -0.115275204 -0.5118049 -0.63446355 -0.27413404 -0.4996907 -0.19967112 -0.114470966
-0.008101086 0.34083113 -0.36676022 -0.49188152 0.015244776 -0.23651604 0.29171735 -0.37855405
0.17471682 -0.28630146 -0.39555416 -0.071536735 0.05351014 -0.018533055 0.04351094 0.41743216
0.8399141 -0.17967793 0.19824365 -0.22454865 -0.05178647 1.0054249 -0.07578777 1.0247024
-0.58088756 0.48179147 0.042170648 0.22089404 -0.007502849 0.21299626 -0.02031398 -0.432104
-0.19209291 -0.30902624 0.9697609 0.33262953 0.93266666 -0.1829302 -0.4320644 -0.12013174
0.6462922 -0.7099419 0.08789459 0.08968536 -0.15760918 -0.30606523 -0.24022564 -0.19149202
-0.13594256 0.09277241 -0.0018873874 0.30084062 0.36815214 0.16353382 0.04715516 -0.1500855
-0.124744624 -0.02006481 0.15349923 -0.39952186 -0.18830481 -0.03751684 0.26636875 -0.6228789
0.7063786 0.19296928 0.51625377 0.39825836 -0.55363816 -0.11718627 0.07709112 0.10202789
0.014464549 0.07181865 -0.5229416 -0.19733523 -0.6239786 -0.0037717225 -0.20538838 -0.9368646
-0.057668537 -0.44022572 0.12112494 0.52182406 -0.057593662 0.12778346 0.7942033 0.25806335
-0.1332046 -0.23359296 0.5743174 0.29731074 -0.029597756 -0.19034111 -0.44553858 0.60780454
0.23368289 0.11408768 -0.12831603 -0.052380558 -0.7060153 -0.49865374 -0.2877431 0.30415165
-0.2521713 0.48452657 0.40732017 0.00920038 -0.08686558 0.385798 0.049021978 0.23924403
0.62067795 -0.06684769 0.21361618 -0.038451817 -0.4701938 0.5079798 0.5461289 -0.9418249

base_model.features.0.block.6.fc.0.bias f4 [16]
00000000: e39c 23bd b029 c33c a5f3 dbbc bc72 95bd
00000010: 74f7 683b 0067 b7bc 8946 473d 7a8c 583c
00000020: 056a 2e3d b50f 96bd 8952 50bd aae1 babc
00000030: 7186 d83d e407 4a3d 1616 38bd ff48 b6bc
-0.03994454 0.02382359 -0.026849577 -0.072972745 0.0035547884 -0.022387981 0.048651252 0.013217086
0.042581577 -0.07327215 -0.05085996 -0.022812683 0.10572518 0.04932393 -0.044942938 -0.022251604

base_model.features.0.block.6.fc.2.weight f4 [128, 16, 1, 1]
00000000: 70d5 e8bd 74e1 7ebc 1f60 ecbd 5702 303e
00000010: 08e2 a8ba 8aed cd3d dbf1 093e 43f1 77bd
00000020: 8e64 9f3e f072 8d3c 4479 02bc 7147 e83d
00000030: 1f80 31be 45c3 ae3d bf17 903e ca04 e8bc
00000040: 64f8 23bd 4376 253e 83cf 993c d137 57be
00000050: 2160 42bd aac3 623c 5b23 1b3e 7ecd 253e
00000060: 7cdb b3bd 3d28 2d3d 37f0 8dbe f37d 81bd
00000070: e8b3 583e 3952 9ebd c143 193e 0c11 bcbd
00000080: f802 d1bd d2cb 873e 3de5 77be 5194 453e
00000090: c867 3a3e d32a d4bd 58fa 763d 4556 1c3d
000000a0: b1dc 313c 7df7 793d 89e8 62be 80d1 ecbd
000000b0: 8c59 5cbe e174 55be 7440 1cbe 5426 92bd
000000c0: 966f ec3c 487a a7bd 865f 31be a3f7 89bd
000000d0: 7ccd 793d 1681 18be 7ebe e73d 8e9e 023e
000000e0: d5f9 2f3c f116 7f3d c257 89be d0d1 4b3c
000000f0: 3058 fbbd 4f72 493b 1905 fdbd a5ef ad3d
00000100: 4202 bb3d 5e30 28be fb48 f6bb 5196 ff3d
00000110: 2877 c6bd 0cc0 8e3d 7cc4 463d f459 2e3e
00000120: 1e81 cb3c 9bba 88bd cc66 633d 642a fe3d
00000130: d599 493e 0780 243d ceb4 823d ec32 833d
00000140: 6d53 f73d d50e 41bd 8ff5 703a ed86 113d
00000150: 7ed4 a8bd 18ba 09bd 3985 8c3b a41d 85bc
00000160: a6fd 2c3e f689 89be 0356 623d 79fb cd3d
00000170: 0e16 543e 155e 873e e94e cb3c a91c 453e
00000180: d365 b6bd c1fb 98be fc31 a7be 38c7 d23d
00000190: 8b87 c23c 6093 f6bc 431e 5abd d933 a93e
000001a0: 0e13 28be 64d1 aabe 133a 37bc 5827 693e
000001b0: 7e09 323e 949c 183e 66f7 95be d3c7 48bd
000001c0: 5d4f 51bd 191f a9be d49f d5bd d8bb 7fbd
000001d0: ec88 1a3e da42 93ba a746 b9bb 7e6c 79bd
000001e0: e1d0 04be 7130 03be 33be 6ebc 82fd c63d
000001f0: 3c39 493e c8f7 debc aeac 2bbe e714 7b3d
00000200: 7fde 3d3d 7a20 523e d088 d73d 7a7c 243e
00000210: 0b5b ccbd 1401 7bbd b1be a6bc 7494 8abb
00000220: 1a3f 19be cc4d f3bd 6eb0 023e 89cb 67bd
00000230: 48d9 473e 7995 fbbd c178 f93c 7462 cabd
00000240: 68e9 4ebe f2bd 883d 6a90 85bd 8c0b c6bd
00000250: f1fd 0dbe 9209 18be 21b3 5f3e 3de3 01be
00000260: 3843 103e 4ddf dfbc 5de4 b4bd 0353 10bd
00000270: 11e5 643e 8c1e 933d 0fb0 e33b 3500 5d3e
00000280: ad7c bd3d 7db1 09be 80d8 2b3e fc2b ce3e
00000290: d816 e53c 8ce1 dfbc 86b9 753d 695f fa3d
000002a0: 87a6 f13d dd1c 6cbd c6ee 9cbe df02 e33e
000002b0: e97c 413e ce30 5a3e 50ad 33be e9ce c13d
000002c0: 60ef 5cbe 2d25 56bc d416 553e bfef 543c
000002d0: 34ca 683d 2ccb 453c 834c 91bc 6501 a7bd
000002e0: c666 eabd f531 8c3d dd78 103e efa4 df3c
000002f0: 6289 5b3e e74b 70be 8a24 33bb c087 153e
00000300: dcac 58bd 5073 5dbe ef08 28bc 5e4c a0be
00000310: 9989 763d 24d4 a1bd db09 2e3e fefc 83be
00000320: a2b5 32be 403d 633e 96ae 513c abbb a7bd
00000330: b28c 743e 87ed a4bd ee84 843e 1ae5 86bd
00000340: f951 d1bd 57f8 5dbe ab76 00bd 7db7 183c
00000350: 4804 f3bc bfaf 3dbe 7157 dabd bc64 113d
00000360: e7e3 13be c121 52bd 3da2 75bd 4a94 cebb
00000370: 86eb ac3d 52a8 103d 8195 ecbd 0dc7 723d
00000380: 81bf bd3c 3929 f73c 33c9 813d 69dd 9cbd
00000390: 45ce cebd 70dd 25be 7e76 2ebe c303 9bbe
000003a0: 056c 6fbd 11d9 87bb ae82 2b3d 3842 923c
000003b0: 3bcf 323e 6fa0 dcbd de13 553e d2f8 063e
000003c0: 556f 9bbe 25fe 2fbe 276d 4a3d fe53 06be
000003d0: 30a0 013e 7bef 01bc dc0f 923e 3db9 64be
000003e0: 065a 9d3b cdf9 cd3c bd69 39be 4e23 9e3d
000003f0: da12 32bd 8be5 0ebd 6b38 013e e680 903e
-0.11368835 -0.015556682 -0.11541771 0.17188393 -0.0012884745 0.100550726 0.13471167 -0.06053282
0.31131405 0.01726672 -0.007963482 0.11341751 -0.1733403 0.085333385 0.28143117 -0.028322596
-0.040031806 0.16158395 0.018775707 -0.21017386 -0.047454957 0.013840595 0.15150206 0.1619167
-0.08782098 0.042274702 -0.27722332 -0.06322851 0.21162379 -0.077305265 0.14967252 -0.09182939
-0.10205644 0.2652269 -0.24208541 0.1929486 0.18203652 -0.103597306 0.06029734 0.03816821
0.01085584 0.06102704 -0.22159018 -0.115633965 -0.21518534 -0.20845367 -0.15258962 -0.07136217
0.028861802 -0.0817762 -0.17321596 -0.06736686 0.06098698 -0.14892992 0.113156304 0.12755796
0.010740717 0.062277738 -0.26824766 0.01244016 -0.1227268 0.00307383 -0.12354488 0.08492974
0.0913129 -0.164247 -0.007516024 0.124798425 -0.09690696 0.06970224 0.048527226 0.17026502
0.024841841 -0.06676217 0.055517957 0.12410429 0.19687589 0.04016116 0.06382142 0.06406197
0.12076459 -0.047133286 0.00091918645 0.035529066 -0.08243655 -0.03362474 0.0042883423 -0.016249485
0.16893634 -0.26863068 0.05525781 0.1005773 0.20711538 0.26438966 0.0248179 0.19249214
-0.0890614 -0.29879573 -0.32655323 0.10291904 0.023746273 -0.03009957 -0.053251516 0.3304737
-0.16413519 -0.33362877 -0.01118328 0.22768915 0.17386433 0.1490348 -0.29290313 -0.049018692
-0.051101077 -0.33031538 -0.104308754 -0.062435 0.15091294 -0.0011235133 -0.0056541744 -0.06089448
-0.12970306 -0.12811448 -0.014571714 0.097163215 0.1965074 -0.02721776 -0.16765091 0.06129923
0.046354767 0.20520201 0.10524142 0.16063109 -0.099783026 -0.061280325 -0.0203546 -0.004229123
-0.14965478 -0.11880073 0.12762615 -0.05659059 0.1951648 -0.12284369 0.030453088 -0.0988206
-0.20206225 0.06676854 -0.065216854 -0.09670171 -0.13866402 -0.14847401 0.21845676 -0.12684341
0.14088142 -0.027328158 -0.08832619 -0.035235416 0.22353007 0.07183561 0.006948478 0.2158211
0.09252296 -0.13446613 0.16781807 0.40267932 0.027964994 -0.027329229 0.059991382 0.12225229
0.11799341 -0.057644714 -0.3065092 0.44338128 0.18895306 0.2130768 -0.17546582 0.09463293
-0.2157569 -0.013070387 0.2080949 0.012996613 0.05683346 0.012072366 -0.017736679 -0.08154563
-0.11445384 0.06845466 0.14108606 0.027300326 0.21439126 -0.23466454 -0.0027335011 0.14602566
-0.052899227 -0.2162602 -0.010256036 -0.31308264 0.060189817 -0.07901791 0.16995947 -0.25778955
-0.174521 0.22191334 0.012797972 -0.08190092 0.23881796 -0.08053117 0.25882667 -0.065866664
-0.10220713 -0.21676765 -0.03136317 0.009321091 -0.029665127 -0.18524073 -0.106612094 0.03549646
-0.14442407 -0.05130172 -0.059969176 -0.0063042985 0.0844336 0.035316773 -0.11551953 0.05927186
0.023162605 0.030171024 0.06337204 -0.07659418 -0.100979365 -0.16197753 -0.17037389 -0.30276307
-0.058452625 -0.0041457494 0.041872673 0.017853841 0.17461865 -0.10772788 0.2080836 0.13180855
-0.30358377 -0.17186792 0.049420502 -0.13117978 0.12658763 -0.007930632 0.28527725 -0.22336288
0.0048019914 0.025143528 -0.18106742 0.077215776 -0.04347501 -0.034886878 0.12619178 0.28223342

base_model.features.0.block.6.fc.2.bias f4 [128]
00000000: a522 85be 6d48 913e 144d 92bd f413 f13d
00000010: 4e96 4b3e 8385 6dbd 7b7c e3bd 0c08 863d
00000020: 9ca2 413c 87b1 a03d 381b 18be be48 07be
00000030: 7644 edbd 39f6 17be 256a d1bd 62b3 0fbe
00000040: ccdc 423d 1024 35bc 2670 44be 2806 4cbe
00000050: f1d3 b0bd 9404 c93d 7cd4 f43b 531f 023d
00000060: 0894 55be 0788 23be c3b1 23bd 0510 ac3d
00000070: 5f45 4abe a2fa 0d3e 1e72 103e 0627 97be
00000080: 4987 843d 4b61 893c 89cd cd3d 6bdb eebd
00000090: 5ca2 fe3d 7d8d 04be bb9d 84bd abd1 693d
000000a0: 0013 88bd 9c47 233e 255f 39bd 8a83 68be
000000b0: 0bd5 66be 416e e0bc 126f 3ebe 72d0 323e
000000c0: 98fb 483e 1f27 e63d 8cc4 2abe 554a b3bd
000000d0: 670a 043e feb0 4c3d a823 9ebc 97c6 04bd
000000e0: cd26 d6bd f49b 86bd 8cad ca3d 87ee 1bbd
000000f0: 60d8 563c 79c8 8e3d 3d9d 33be 28a4 4dbd
00000100: c799 4e3e 3eeb 81bb 7520 b33d 2b55 f4bd
00000110: 00ce c73d ce8e e3bd 9636 403e c8a8 26bd
00000120: 8636 2cbe 2f09 60bd 8812 623e 8b29 3c3e
00000130: e1e1 08bd 4894 123e cfb6 87bc 8084 143c
00000140: 1cb0 3d3e 9912 d5bc 6974 a73c 0f2e d23d
00000150: eeb9 0fbd 890c 00be 134c 473c 970a d4bc
00000160: 7280 18bd 537d 583e 54d0 393e a1c6 61be
00000170: 4c9a d4bd 8783 5e3d 3359 c13d 14d4 22bd
00000180: af3a afbc 25fe c3bd cc37 15be b796 86be
00000190: 3824 4abe 8734 b53d 296a 443d 88a1 39bd
000001a0: dd05 653e 85d7 42bd 598f 573e d013 c6bc
000001b0: 554e 2bbe 72b1 003d 510f 64be f95d c23d
000001c0: c6cd 113d af88 073e 1810 d23d 1f9e 553e
000001d0: 2ea2 50be 5fb8 5fbe c5b5 423c 5d08 b7bd
000001e0: 3324 3ebd e0ac 563e d42c 133d 842e 61b9
000001f0: 2780 82be 26de 98bd e8f6 59be 0e49 97bd
-0.26002994 0.2837557 -0.07143608 0.11771384 0.19881555 -0.057988655 -0.11107727 0.065445036
0.011818554 0.07846361 -0.14854133 -0.13211343 -0.115853235 -0.1484002 -0.102253236 -0.14033273
0.04757385 -0.011055961 -0.19183406 -0.19924223 -0.086341746 0.09815326 0.007471619 0.031768154
-0.2085725 -0.15969859 -0.03996445 0.08401493 -0.19753025 0.1386514 0.14106032 -0.2952196
0.06471116 0.016770026 0.10048968 -0.116629444 0.12433311 -0.12944598 -0.06475397 0.05708472
-0.06644249 0.15945286 -0.045256753 -0.22706428 -0.22542207 -0.027396323 -0.18597057 0.17462328
0.19627225 0.112379305 -0.16676539 -0.08754412 0.12894593 0.04997348 -0.019304112 -0.032415953
-0.104566194 -0.065727144 0.09896383 -0.038069274 0.013113111 0.06971831 -0.1754045 -0.05020538
0.20175849 -0.0039648106 0.08746425 -0.11930307 0.09756088 -0.11111222 0.18770823 -0.040688306
-0.16817674 -0.05469626 0.22077382 0.18375222 -0.03341854 0.14314377 -0.016566662 0.009064794
0.18524212 -0.026009845 0.02044125 0.10262691 -0.035089426 -0.12504782 0.012164134 -0.025883956
-0.03723187 0.21141557 0.18145877 -0.22048427 -0.10380992 0.054324653 0.094408415 -0.039753035
-0.021390287 -0.095699586 -0.14572066 -0.2628686 -0.19740379 0.088479094 0.047952805 -0.045320064
0.22365518 -0.047568817 0.21050777 -0.02417937 -0.167291 0.031419225 -0.22271468 0.0949058
0.03559663 0.13235734 0.10256976 0.208611 -0.20374367 -0.21847676 0.011884158 -0.08937142
-0.04642124 0.20964384 0.035931423 -0.00021475 -0.25488397 -0.074642465 -0.21285594 -0.07386981

base_model.head.2.weight f4 [32, 64]
00000000: 4020 41be bc93 473e 75e8 0ebe 2e93 1bbe
00000010: a231 00bd 6e61 b2bd 4e66 cfbd c362 98be
00000020: e657 893d 79bc 433e e790 26be 2cfc bfbd
00000030: 2f62 333e 4055 6bbe c65f c0bd 14ab 8cbc
00000040: 01aa d33d d4c2 1a3e cc76 8dbd 3b37 3e3e
00000050: 0a86 0c3e b680 b43d 3bc2 bc3e 14e8 9f3d
00000060: 5c1f cfbd e31f c23d 20f5 acbc 30ec f4bd
00000070: 1a4b b53d 7dd4 7f3d acd4 2a3e 7cdc 913d
00000080: 4ecd fd3d 3929 c83d 84df 873c 5e0f 89be
00000090: 9352 42bb 3e6a 853d 09ab 57bd a875 cdbd
000000a0: 9369 7cbe cdb6 c7bd 1f7f 233b dd2c f8bc
000000b0: f6a9 b73c c340 13bb 2a68 053e 6f4d 133e
000000c0: ad78 f6bd 314d 1cbe 4adb 783d b336 aa3d
000000d0: 7443 ccbc 3352 aa3d 3b32 e53c 8a43 73be
000000e0: 1cee a13b 6656 523e eb0d 383e 07bd 31be
000000f0: 4e58 be3d f7b5 853d 89d3 13be 3786 83bd
00000100: 9ad8 18bb e4bb 243e e299 a53e 2343 abbd
00000110: c5e9 bdbe 2ce0 e83c 2edc 963e f609 973e
00000120: 35ad 7f3e a83c 20be 8827 a8bd d9be 183e
00000130: 9e85 23be acd5 963e 1809 efbc 961e fdbd
00000140: 9734 273c a7f1 163e 88ad f5bd 02db 533d
00000150: 9d35 6a3e 2379 143e cecf ea3c b747 7ebd
00000160: e18f e33d 1748 2a3e 6f43 62be 7683 34bd
00000170: 89a7 943d a697 4f3e 4412 5fbe 6590 2d3e
00000180: 2ad8 1dbe d314 713d 4343 5bbd cdb4 51bb
00000190: 87cf abbc a627 44bb 9ce8 653e 4234 c2bc
000001a0: 8ed4 c7bd 7e41 923d 71cf 023e 8e36 803e
000001b0: cbe6 6a3d 62f6 ab3d d030 6dbd ec1a 19bd
000001c0: bd07 a73d 22e0 813e b323 10be 41e3 79be
000001d0: 3efa 283d 9881 8ebd 074f 10be fb8d ef3d
000001e0: 87f7 253e d360 de3c 8ea4 b7bd a0d6 573e
000001f0: 0908 e2bd e129 0bbe 1a58 cbbd d075 1dbe
00000200: 1cc9 0d3c abdf 0b3e 797a 403e 51cb 17bc
00000210: 565f f3bc fcd7 083c f90b b4bd 888e 993e
00000220: ee0d 9a3b 555d 1abe 0a52 8f3d bc64 343e
00000230: f19c f6bc 6851 233e 44d0 89bd 7b1d d2bd
00000240: 4686 87bd 8abe 1f3d 32c7 2abe 0d85 abbd
00000250: 7905 993e 4a14 fa3c 8862 18be cfd7 63bd
00000260: 5cae 35bd f561 8f3d 9bd4 8abe 9ebc 903e
00000270: 3a42 0dbe f533 923e 61bd 3dbe 0cda 993d
00000280: 688d 4dbe 52f0 c7bd 8d48 883d 719f cfbd
00000290: 6390 f5bd 7686 2bbe 7e2c 00bd 557b 1b3d
000002a0: a45e 483e 095b d5bd 6a14 0a3e 102e a93d
000002b0: 8606 05be 170b 1ebc 7bf5 64b9 ca78 e1bd
000002c0: 3a6b 90bd c7b3 d13d 61a4 a2bd b049 c13d
000002d0: 55d4 c1bd f5b7 273d e220 01be 3b6d e53d
000002e0: 5219 fb3d ab78 473d 0c2b 203d be8d 3e3e
000002f0: 5f8c b8bd 89b9 d03d 7c80 153e 167b 343e
00000300: 6ba5 e0bc d747 4cbe ff55 ce3e 50dd 123d
00000310: bddd 10be c7db 19bc 0607 bc3e 77a8 0b3e
00000320: fe12 6a3d 00b3 91ba d790 563d 611e 1bbe
00000330: 34e3 af3c 794e e93e 2c50 58be dce4 493d
00000340: 229b 2fbe 4eff 25be f9cf 78be cd1a 5bbe
00000350: 3fba e03e 67a4 f2bd 7182 25be c3ec 2bbe
00000360: 71e5 d1bd 19c0 323a aaca 61bd c073 923e
00000370: 98dc d13d 708b 6c3e 5f23 b53c 6894 9d3d
00000380: 8dcd 85be 5b90 a5be e9a7 96be 1343 5d3e
00000390: f328 983d 6d01 873d ed61 bc3c 6532 e33d
000003a0: 0ba3 223e 6fa5 c83d 3c9f 19bd d67f d23d
000003b0: 16a0 2dbe 7258 723e d626 a1bd 3c84 70be
000003c0: f7c8 763e e7b3 66bc b68f bbbd 802c 55bd
000003d0: 712b e6bd 961a ca38 dbcf abbd 9711 c8bd
000003e0: 72fd c0bc 08aa 8abd ec83 85bd bfb5 1e3d
000003f0: 4a39 e1bd 0cfe 263e 80d0 3ebe 0924 2c3d
-0.18859959 0.1948995 -0.13955863 -0.15192863 -0.031297334 -0.087099895 -0.10126935 -0.2976285
0.067062184 0.19114865 -0.16266213 -0.0937427 0.17517923 -0.22981739 -0.09393267 -0.01717142
0.1033516 0.15113384 -0.06907424 0.18575756 0.13723007 0.08813612 0.36866936 0.07807937
-0.10113403 0.09478738 -0.021112978 -0.11959112 0.08852215 0.062458504 0.1668269 0.07122132
0.123926744 0.097734876 0.016586073 -0.26769537 -0.002965127 0.06514405 -0.052653346 -0.10032207
-0.24649648 -0.09751663 0.0024947596 -0.03029483 0.02241991 -0.002246902 0.13028017 0.14385007
-0.12034736 -0.15263821 0.060756005 0.08311214 -0.024934508 0.083164595 0.027978053 -0.23756233
0.004941715 0.20540771 0.1797406 -0.17357264 0.092941865 0.06528848 -0.14436163 -0.06422084
-0.0023322464 0.160873 0.32343966 -0.08362415 -0.37092414 0.028427206 0.2946486 0.29499787
0.24968417 -0.15648139 -0.08210665 0.14916553 -0.1596894 0.29459894 -0.02917914 -0.123593494
0.0102054095 0.1474062 -0.11995989 0.051722534 0.22872014 0.14499335 0.028663542 -0.06208011
0.11111427 0.16629063 -0.22096036 -0.044070683 0.07258517 0.20272693 -0.21784312 0.16949613
-0.15414491 0.05885775 -0.053530943 -0.0031998635 -0.02097298 -0.002993086 0.22452015 -0.02370656
-0.097573385 0.07141398 0.12774445 0.25041622 0.057349008 0.08396603 -0.05790788 -0.03737919
0.08155773 0.25366312 -0.14076118 -0.24403097 0.041254275 -0.06958312 -0.14092647 0.116970025
0.16207705 0.027145779 -0.08966933 0.21077967 -0.11036689 -0.13590194 -0.099289134 -0.15376973
0.008653905 0.13659541 0.1879672 -0.009264783 -0.029708546 0.008352276 -0.08791346 0.29991555
0.0047013676 -0.15074666 0.069980696 0.17616552 -0.030104132 0.15949023 -0.06729177 -0.10259529
-0.066174075 0.03900007 -0.1667755 -0.08374987 0.29886988 0.030527253 -0.14881337 -0.055625733
-0.044355735 0.07001106 -0.2711533 0.28268903 -0.13794795 0.28555265 -0.18529274 0.07512292
-0.20073473 -0.09762634 0.06654463 -0.10137833 -0.1199043 -0.16750512 -0.03129243 0.037959415
0.19567353 -0.10417754 0.1348435 0.08260739 -0.1299077 -0.009646199 -0.00021835223 -0.11009367
-0.07051702 0.10239368 -0.07941509 0.09437883 -0.09464327 0.04094692 -0.126102 0.11202475
0.12260689 0.048699062 0.039103553 0.18608758 -0.09011149 0.10191638 0.14599794 0.17625079
-0.027422627 -0.1994928 0.40299985 0.03585559 -0.14147086 -0.009390778 0.36724108 0.13638483
0.05714702 -0.0011115968 0.052384224 -0.15148307 0.021470644 0.45567682 -0.21124333 0.049290523
-0.17149022 -0.16210672 -0.24298085 -0.21396942 0.43892094 -0.118477635 -0.1616304 -0.16789536
-0.102488406 0.0006818786 -0.055124916 0.28603935 0.10247153 0.23100066 0.022111593 0.07694322
-0.26133385 -0.32336697 -0.2942498 0.21607618 0.074296854 0.06592069 0.022995913 0.11093596
0.15882508 0.09797179 -0.037505373 0.10278289 -0.16955599 0.23666552 -0.078687355 -0.23487943
0.241001 -0.014080978 -0.0915827 -0.05204439 -0.112387545 9.6370626e-05 -0.08389255 -0.0976898
-0.023558352 -0.06770712 -0.06519303 0.038747545 -0.10997255 0.16307849 -0.18634224 0.042026553

base_model.head.2.bias f4 [32]
00000000: de46 acbc 18e6 4d3d e37d a7bc c249 3f3e
00000010: 6c45 9d3d d02f 2fbc e1cc 493d 86d9 003c
00000020: 4998 803d b533 ce3d e5e7 4c3d 2cb9 4d3c
00000030: 7ce5 0c3e 8b7f 893d 5d78 533d fba6 c73d
00000040: ad6e 87bd d671 1a3e 4bea 323d 455c 423c
00000050: 69ee 0a3e 0739 c53d 332f 023d cf3c 57bc
00000060: c599 a7bc 7caf 653e f697 d8bc f5f8 c1bd
00000070: 78b1 a13c 0e6c 43bd 91ec 113d a276 f1bc
-0.021029886 0.050268263 -0.02044577 0.1868048 0.07679257 -0.010692552 0.049267653 0.007864362
0.06279046 0.10068456 0.05002584 0.012556355 0.13759416 0.0671378 0.05162846 0.09748646
-0.066129066 0.15082487 0.04368047 0.011862819 0.13567509 0.09630018 0.031783294 -0.0131370565
-0.020459065 0.22430223 -0.026439648 -0.09471313 0.019737944 -0.04771047 0.035625998 -0.029475514

base_model.head.5.weight f4 [1, 32]
00000000: 3a1e 29be fb43 4e3e 5fdf 893e 6926 163e
00000010: 1d6e 48be 3c4d 343e 4835 343e 538d c3be
00000020: 1b65 76be b5b3 53be 8f92 75be c613 b3be
00000030: 3ac7 1b3e 8197 42be bc46 1e3e 3146 49be
00000040: 3678 a33e 7197 2ebe e0f4 383e c8eb 96be
00000050: e49c 093e 0cfb 463e 11eb 15be ef4a 993e
00000060: 76b6 8e3e 4efc 103e ace6 8ebe 8ff0 5a3e
00000070: 00df 6fbe 8753 8c3e 1ef6 803e 1f30 a2be
-0.16515437 0.2014312 0.2692823 0.1466309 -0.19573255 0.17607588 0.1759845 -0.3819376
-0.24062006 -0.20674022 -0.23981689 -0.34976023 0.15212718 -0.19003107 0.1545667 -0.19655682
0.3192765 -0.17049958 0.18062162 -0.29476762 0.13438755 0.19431704 -0.14640452 0.29939982
0.27873582 0.14158747 -0.27910364 0.21380828 -0.23424911 0.27407476 0.25187773 -0.31677338

onnx::Conv_82 f4 [32, 3, 3, 3]
00000000: cbe5 ed3d 02ea 1bc0 f9a3 d0bf 5af3 6740
00000010: 670c fe3f 28dd e3bf b4c7 bc3f 5da6 16c0
00000020: c4bc a23e fe2a e63e 6a54 cabf dee2 273c
00000030: bb33 87bf 3498 0040 c6e7 cdbe 3607 1440
00000040: b3d0 693e 975b febf 4e29 75bf 3886 ff3e
00000050: 6e4c 0dc0 74c2 2940 a58a fbbf f5a5 b33f
00000060: f855 4a3f 9bea b6bd 1d7e 1b3f 92b2 b1bd
00000070: 80ca 8ebe 5584 fd3e e3ab bcbf 99f1 8940
00000080: 9ea9 05c0 081a 1840 736f a2bf 12d4 4dbf
00000090: 586f 0040 4a82 11bf d812 4840 e636 f03f
000000a0: a2a8 fb3f 1173 35c0 680b cc3e edb8 ebbe
000000b0: d159 1abf 5c9d c8bf e169 aec0 3140 46bf
000000c0: 8db4 913f a543 8440 60c7 05be d228 adbf
000000d0: 2cb9 9a3f bedf 76c0 636b ebbf fa77 2d3f
000000e0: 2268 6440 91b1 8ebf 86f1 de3f 783a 7d3f
000000f0: 5bb7 603f a4d8 31c0 52d1 9a3f cad4 7ebe
00000100: 658e 893f bcc7 7c3d ba75 6cbf 24c0 1c3d
00000110: a01c a63e af21 c23f 9f6b e13f db64 4a3f
00000120: 0f22 bdbe a0f8 00c0 0832 90bd 85cd a0bf
00000130: a7ac 6abe d6e5 ddbe f3a4 e03e 9146 02c0
00000140: c6ca ecbe 8294 e4bf 27cc 363f f0cf cbbf
00000150: 4418 c43e 8b21 91bd 751c 373f 15a0 673f
00000160: 8385 6fbe 84e2 d9bf 0db6 66bf d347 da3e
00000170: c3b3 783f f26e 17bf 6fff 20bf 971a 79bf
00000180: 32d7 afbe ea80 21bf f73a 913f 42c1 54bf
00000190: 937d e3bf 91cd dbbe be15 7e3f 642b 203f
000001a0: 947e 82be f3a0 043f 5334 ba3e 81a0 56bf
000001b0: 101a 72be cee6 9b3e ac7a 54bf 2bf2 63bf
000001c0: 9002 51bf 8369 063f 8a32 82bf 237b 903d
000001d0: ea9f ab3e a0df 80bf 9512 b0be b58c 64be
000001e0: 266c 55be 8b55 13bf 6566 013f 8553 2fbf
000001f0: 5487 2e3e 6327 dd3e 5510 0f3e 08dd 0bbf
00000200: d61d 9c3f dc3e 9fbf 4b2c 8b3f a799 9ebe
00000210: 9100 98bf f662 d1bf 7b03 933f 8fa7 203f
00000220: 172e f0be 91bf 1dbe c234 6cbf ea84 65bf
00000230: b255 41bf 3ed0 e7be 3c91 3fbf 9278 a23d
00000240: 3046 d23f 76bc 193b f94e 753f 9733 523f
00000250: f23c 0cbf bbce 743d 296c 96bf 8be9 203e
00000260: b404 9abf 7aec 73be 41f8 2abf bf39 403f
00000270: d6a9 ef3d e427 92be 5d94 46bf f517 5ebf
00000280: fc49 623d a9c1 c8be f626 003f 4456 4dc0
00000290: d7ca 8bbe 8d4e eabe 57a6 813f 9d47 4440
000002a0: edd8 543e bcff 53c0 6d92 443d c699 6d3e
000002b0: 288a 553e 1fa7 763e 6773 2a3f 92c5 08bf
000002c0: 1c76 8940 4a60 3bbf c0ba 98bf 3712 d1bd
000002d0: 762d 1fbf 5394 cc3d 34bd ca3e 35b0 4a3f
000002e0: bc03 07bf e244 1e3f 4d1c fabf 9d13 2ebf
000002f0: 50b1 06bf fc41 99be 07cc 59bf 7389 c43e
00000300: e001 79bf 14df 16be a51b e13c 2050 87bf
00000310: 5b12 3c3f 3828 c0be d6d0 c83e a625 f43e
00000320: 9007 8cbe 6f8d f83e 7517 babd 18ea a9bf
00000330: 0d9a be3d cede 78bf 6681 d3bd 77a7 8b3f
00000340: ac90 efbe e3ea 703e 2e24 8dbf 35c1 efbb
00000350: 58f8 75bf 7223 673f 53ba 8bbf eec2 78bf
00000360: 392b f1bf 7ee7 3b3f 2c56 f13f 272f 39bf
00000370: 9c71 de3e 622b bf3f 351a 413f e41a e13e
00000380: 90bb 06c0 e4dc bfbf 23c4 7abf 9d0d 3240
00000390: 4f12 2b3f ceb8 fe3d 5612 1140 c731 f8bc
000003a0: 20ec 00c0 cd24 f43e 2c4a d33d 8c6a 873e
000003b0: 789b 28c0 69f8 a03f 966c 9f3f a2a6 2640
000003c0: 7048 053f c8b0 cebf ac6c a3bd 4f7b 01c0
000003d0: 5b28 b8be f657 32bf e036 e7bf 6982 963e
000003e0: 336d 863f 98fc 8e3f 6a44 423f 0669 8abe
000003f0: 5796 913e d189 07bf 3e55 96bd c3c3 98bf
0.11616095 -2.4361577 -1.630004 3.624228 1.9847535 -1.7801867 1.4748445 -2.353904
0.31784642 0.44954675 -1.5807011 0.01024696 -1.0562662 2.0092897 -0.40215892 2.3129401
0.22833519 -1.9871701 -0.9576615 0.49907088 -2.20779 2.6524935 -1.9651686 1.4035021
0.7903743 -0.08931466 0.6073931 -0.08676638 -0.2788887 0.49515024 -1.4739956 4.310742
-2.0884776 2.3765888 -1.2690262 -0.8040172 2.006796 -0.5683943 3.1261501 1.8766754
1.9660838 -2.835148 0.39852452 -0.46039525 -0.602933 -1.5673022 -5.4504247 -0.774417
1.1383225 4.1332574 -0.13064337 -1.3528082 1.208776 -3.8574061 -1.8392147 0.67761195
3.5688558 -1.1147939 1.7417457 0.9891734 0.8777978 -2.7788477 1.209513 -0.2488586
1.074658 0.06171392 -0.92367136 0.038269177 0.32443714 1.516653 1.7610968 0.79060143
-0.36940047 -2.0151749 -0.07040793 -1.256272 -0.22917424 -0.43339413 0.43875846 -2.035557
-0.46248454 -1.7857821 0.7140526 -1.5922832 0.38299763 -0.07086476 0.71527797 0.9047864
-0.23390774 -1.7022252 -0.9012154 0.42632923 0.97149295 -0.59153664 -0.6288976 -0.973062
-0.34343868 -0.6308733 1.134612 -0.8310739 -1.7772697 -0.42930272 0.99251926 0.6256621
-0.25487196 0.5180809 0.36368045 -0.8383866 -0.23642755 0.30449528 -0.8299968 -0.89041394
-0.81644535 0.5250475 -1.0171673 0.070547365 0.33520442 -1.0068245 -0.34389177 -0.223193
-0.20842037 -0.57552403 0.50546867 -0.68486816 0.17043811 0.43194112 0.13971074 -0.5463414
1.2196605 -1.2441058 1.0872892 -0.30976602 -1.1875173 -1.6358325 1.1485437 0.62755674
-0.46910164 -0.15405108 -0.92268 -0.89655936 -0.75521386 -0.45276064 -0.74830985 0.07933153
1.642767 0.0023458279 0.9582363 0.8210997 -0.54780495 0.059767466 -1.1751758 0.1571409
-1.2032685 -0.23820677 -0.66785055 0.75088114 0.117023155 -0.2854606 -0.77570134 -0.86755306
0.05524634 -0.3921025 0.5005945 -3.2083902 -0.27303192 -0.45763054 1.0128888 3.066871
0.20785876 -3.3124838 0.047991205 0.23203191 0.20853484 0.24087189 0.6658234 -0.5342647
4.2956676 -0.731938 -1.1931992 -0.10208552 -0.6217874 0.09989228 0.39597476 0.7917512
-0.52740073 0.61823857 -1.9539887 -0.6799868 -0.5261431 -0.29933155 -0.85076946 0.38386115
-0.97268486 -0.14733535 0.027479002 -1.0571327 0.7346551 -0.37530684 0.3922183 0.47684973
-0.2734952 0.48545405 -0.09086505 -1.3274565 0.093067266 -0.9721497 -0.10327415 1.0910481
-0.46790063 0.23527102 -1.1026666 -0.0073167332 -0.9608207 0.9028846 -1.0916237 -0.9717244
-1.8841316 0.73400104 1.8854423 -0.72337574 0.43446052 1.4935114 0.75430614 0.43965828
-2.105198 -1.4989285 -0.9795553 2.782081 0.6682481 0.124375924 2.2667441 -0.030297173
-2.014412 0.47684327 0.103168815 0.26448476 -2.634489 1.2575809 1.2455013 2.6039205
0.52063656 -1.6147699 -0.07979712 -2.0231512 -0.3596829 -0.6966547 -1.8063622 0.2939637
1.0502075 1.1170835 0.7588564 -0.27033252 0.28435013 -0.52944666 -0.073404774 -1.1934742

onnx::Conv_83 f4 [32]
00000000: c293 5b3d 47ae 24be c64a 04bf e20b ba3f
00000010: f3d7 c43f 80bd be3f 8a0a e23e fc66 d13f
00000020: acb8 96bf 3c06 b23f fe20 823f 538f a13f
00000030: 8dec 23be 1196 b03f d7d2 413e d83a c3bf
00000040: 167a ae3f 9d6c ff3e 4c17 bd3f 64f2 b0bf
00000050: cc1a e13e 9d7f 1a3f 1628 813e 52e9 d03d
00000060: 269c babf f6ec 6a3f 9edf d6be d03a d9be
00000070: d9f7 bb3f 10c3 1b3f e1f0 96bf ee12 403f
0.05360771 -0.16082107 -0.51676595 1.4534876 1.5378402 1.4901581 0.44148666 1.6359553
-1.1775107 1.3908153 1.0166318 1.2621864 -0.16008206 1.3795797 0.18928085 -1.5252333
1.3631008 0.49887553 1.4772735 -1.3823972 0.43965757 0.6035097 0.25225896 0.10200752
-1.4578903 0.91767824 -0.4196748 -0.42427683 1.4685012 0.60844517 -1.179226 0.75028884

onnx::Conv_85 f4 [32, 32, 3, 3]
00000000: 5b51 46bc 0217 1c3e aac9 33bc 5a29 41bc
00000010: d06b 3e3d 32f1 00bb 6ae6 ab3d 04a5 0ebe
00000020: e38a e23d dac3 95bd 8751 693d f686 593d
00000030: 3286 cbbd e23c 15be 2ddd 4abe 7236 78bd
00000040: d07b 7fbd fd32 553e 75d9 9f3d bb42 96bd
00000050: edf2 3bbd 2644 0fbe 9bcd d6bd fd5a 04bd
00000060: 4877 8cbd 764e e9bd d60f a4bd d826 aabd
00000070: 26af 28be a5fb c43d 3218 123e 8e64 d83d
00000080: df31 9abd bc60 26bd aced 983d c6d5 e93d
00000090: 805e b3bc 170c 983d a3ea b83d 4d41 4dbc
000000a0: d18d d43d fe7f 713d 070b df3d 99b6 9ebc
000000b0: f921 723d fe73 07bd 9eed b1bc d7cb 1dbd
000000c0: 3f7b 473d a7d2 d6bd 6917 4f3c 8ce6 04bd
000000d0: 2ad0 dabd e115 4f3c 32e3 483d 6b5d 913c
000000e0: 9d95 143e b18b a8ba 8c9c 44bd ef4f d7bd
000000f0: 31e7 79bc 0375 f3bd d2c0 c43c f36e 723d
00000100: 4f43 e53d b2e9 89bd 9e77 6bbd 7de7 2cbd
00000110: c0f3 9cbd 1702 703d 225a 203c 506f f43c
00000120: e968 1d3d a1f7 203e af73 29bc 265d 663c
00000130: e969 a73d 3572 5c3d b333 7dbd 83d1 b8bc
00000140: 2bce 80bd 570f f83d a133 463e 0831 893d
00000150: 0379 423c 6edb 9fbd d4fc 48bd 7e16 8f3d
00000160: 05d5 9b3d ba93 a7ba 5bd9 68bd f7d4 50bb
00000170: 94e3 b3bd 7014 debc 8221 56bd 3367 79bc
00000180: ebb4 acbd b8ff 5ebe c9da fbbd e4c1 e03c
00000190: 9f72 9ebd 4dfb 333d 3d0b 02bd fab8 a33c
000001a0: 5c7f 1b3e 96d1 ffbc 33e1 a23d 4851 ad3d
000001b0: b365 d2bd 933e 443d 9c6d 9dbc f473 433d
000001c0: 23ae e4bd fc08 0abd 9fd5 89bd 84cd ccbc
000001d0: 43a3 f8bd 47f3 9ebd 7bec 12be 359f c53d
000001e0: a1ed 14be ecbb 533d a2db 0939 320f 88bd
000001f0: 4988 fc3d 2a62 963d 745a 7fbc b47b 7a3d
00000200: d771 e83c 2ca5 aabc 3bee c93c ab18 78bd
00000210: a32e e7bc 0f61 c2bd 2738 b2bd 716c 283d
00000220: 04ef 3fbd 7ef9 c73b a1d7 97bd 136b 963d
00000230: 18a8 a1bd c208 4cbd a2cb 12bd a465 923d
00000240: 3072 163d 7191 943d aa84 7e3d 0243 0ebc
00000250: b730 723d c69e c23c a4c5 4a3c 7d3b 9c3d
00000260: 1dd9 f83d 5a46 453d feb3 71bc 00af 23bd
00000270: 7766 443b e2aa 9fbc 5f24 c03b 0865 83bc
00000280: 6711 6b3a d5e7 91bd a376 ddbb 91d1 733d
00000290: caa8 09be bf99 a93d a36d 59bb 590e 433d
000002a0: 3553 fabd 71f8 d53d 40fe 11bd 536a 8d3d
000002b0: 6f76 36bc e8d0 173c e910 ac3d 2cd7 693d
000002c0: 5b8c ae3d 0f72 833c a430 80bd e9d1 553c
000002d0: cfb3 86bd 31a5 90bc b77f 4b3d 2ee2 b13b
000002e0: 9c04 c73d b7fb 47bd 51d8 0abe a0b3 f0bc
000002f0: 2e28 e83b dead f6bb 6b9a 98bb fd67 1fbd
00000300: f2cc 033e c63d bcbd 4ed9 f63d 0f4c ee3c
00000310: aaec 353c 3bcb 31bd d537 fd3d 32c0 1dbe
00000320: 65aa 3bbd eabe 4e3d da82 afbc c4d7 efba
00000330: f3da 63bd 22e4 86bd 51e5 5ebd 3158 2abe
00000340: 9388 4cbd a102 97bc 8317 97bd e932 98bd
00000350: 62ca 933c 67fa c6bd 2974 a63d 4d9c b7bd
00000360: 81a5 55bd 9299 23bb fe6e 1a3d d65d d8bd
00000370: 2bd3 943d 01af 043d 0523 2b3d e17b bfbc
00000380: 85bf 733d e1bc 36bd 4aa9 f2bd d2ee 813c
00000390: c8c6 af3d bc19 e7bd 6cee 3f3c f6a9 ed3c
000003a0: 41ca 98bd 1d1b 653c bd5e 10be 18ed 4cbd
000003b0: 9ce4 02be 75a4 80bd e8dd a0bd 0595 23be
000003c0: 5df6 dcbb 6729 99bd 9e6d 81bc ad10 d03c
000003d0: ca07 4bbd 041c 35bd f731 92bc 468f c53c
000003e0: c7dc 023e c77f 4b3d f5cc 93b9 b561 e13d
000003f0: 2bf0 ac3d 368b b3b9 80c1 08bc 2178 46bd
-0.012104358 0.15243152 -0.010973373 -0.011789644 0.046489537 -0.0019675014 0.08393557 -0.13930136
0.11061647 -0.07312746 0.056962516 0.053107224 -0.09937705 -0.14574006 -0.19810934 -0.060598798
-0.062373936 0.20820232 0.078051485 -0.073369466 -0.04588597 -0.1399084 -0.10488435 -0.032313336
-0.068586886 -0.11391918 -0.08010833 -0.0830819 -0.16473064 0.0961831 0.14267042 0.10566054
-0.075290434 -0.040619597 0.07467207 0.11417727 -0.021895647 0.07424181 0.090291284 -0.012527776
0.10378612 0.058959953 0.10890775 -0.019374179 0.05911443 -0.033069603 -0.02171975 -0.038524475
0.04870152 -0.104893975 0.012639859 -0.03244643 -0.106842354 0.012639494 0.049044795 0.01774474
0.14510198 -0.0012859014 -0.048000857 -0.10513293 -0.015252874 -0.118875526 0.024017725 0.05918784
0.11194479 -0.06734027 -0.057487123 -0.042212952 -0.07663679 0.058595743 0.009787114 0.029838234
0.03843013 0.15719463 -0.0103425225 0.014060294 0.08174498 0.053819854 -0.061816882 -0.02256084
-0.062893234 0.12112301 0.19355632 0.06698805 0.011869672 -0.07805525 -0.04906924 0.06986712
0.076089896 -0.0012785115 -0.05684791 -0.0031865218 -0.087836415 -0.027109355 -0.05227805 -0.0152223585
-0.08432945 -0.21777236 -0.12297589 0.027436204 -0.07736706 0.04394083 -0.031749 0.019985665
0.15185302 -0.031227868 0.079531096 0.08462769 -0.10273304 0.047911238 -0.019217305 0.047718003
-0.111660264 -0.033699974 -0.06730198 -0.025000341 -0.12140515 -0.07761245 -0.14348023 0.09649507
-0.14543773 0.05169289 0.00013147158 -0.06643523 0.12330682 0.07342942 -0.015585531 0.06115313
0.028374596 -0.020830713 0.02464973 -0.0605704 -0.02822048 -0.09491169 -0.087021165 0.041119043
-0.046858802 0.00610274 -0.07414175 0.073446415 -0.078933895 -0.04981304 -0.03583873 0.07148293
0.03672999 0.07254303 0.062138237 -0.008682968 0.05912849 0.02375735 0.012376223 0.07628534
0.12150786 0.048162796 -0.014752386 -0.039961815 0.00299683 -0.019490663 0.005863711 -0.016039386
0.0008967132 -0.071242966 -0.0067585274 0.05952603 -0.13443294 0.08281278 -0.003317692 0.047621105
-0.12222902 0.10447777 -0.035642862 0.06905045 -0.011136635 0.009266116 0.08401663 0.05708997
0.085228644 0.016045598 -0.062592775 0.013050535 -0.065772645 -0.017656894 0.049682345 0.005428574
0.09717676 -0.04882404 -0.1355908 -0.029382527 0.007084868 -0.007528051 -0.00465708 -0.03891753
0.12871149 -0.0919147 0.12053166 0.029089002 0.011103788 -0.043406706 0.12364165 -0.15405348
-0.045816798 0.05047504 -0.0214247 -0.0018298556 -0.055628728 -0.06586482 -0.054417912 -0.16635205
-0.049934935 -0.01843387 -0.073775314 -0.07431585 0.01804084 -0.09715729 0.081276245 -0.08965359
-0.05215979 -0.0024963361 0.037703507 -0.10564773 0.072668396 0.03239346 0.041781444 -0.0233745
0.05950882 -0.044613723 -0.118486956 0.015860949 0.085828364 -0.11284205 0.011714559 0.029011708
-0.07460452 0.013983515 -0.1409864 -0.050030798 -0.1278252 -0.06281368 -0.07854825 -0.15974815
-0.006743236 -0.074786 -0.01579934 0.025398577 -0.049567975 -0.04421617 -0.01784609 0.02411617
0.12779532 0.049682405 -0.0002819073 0.11004964 0.08444246 -0.0003424526 -0.008346915 -0.048454408

onnx::Conv_86 f4 [32]
00000000: f02c 1a3f 872a dd3e 30f9 7e3d a20f 543e
00000010: bb9d d53e 61eb 78be d8e7 9ebe 3ac6 96bd
00000020: c31d 073f cbe1 853d 9b6f 563f 6ef2 003f
00000030: e7ea d33e 9e34 8dbd fac2 d33d 6e7c 16be
00000040: 7564 1bbe 0363 113f f976 003f ab66 f73e
00000050: aa40 9d3e 5326 843e b01a d83d da44 3b3e
00000060: c498 853e 4547 283f b6a4 263e de6b 6f3e
00000070: c211 5b3e 892c e03e 7882 9c3d 783e e13e
0.6022482 0.43196508 0.062249362 0.20709088 0.417219 -0.2430854 -0.31036258 -0.073620275
0.5277979 0.06537207 0.83764046 0.5036992 0.41390154 -0.068948016 0.10339923 -0.14695904
-0.1517504 0.56791705 0.5018154 0.48320517 0.30713397 0.2581049 0.10551965 0.18287984
0.26093113 0.6573375 0.1627377 0.23380992 0.21393493 0.43783978 0.076420724 0.43992972

onnx::Conv_88 f4 [128, 32, 1, 1]
00000000: 44db 063f 2e1f 79bd 5778 ecbe e611 8b3d
00000010: 0f23 9f3f 4a34 1dbf 48fa 9d3e 460d c13e
00000020: 3f10 bcbc d62f 3d3f d1aa 49be d91d c03e
00000030: 3b4b 1dbf c078 433e 2cc5 1ebf b514 e03e
00000040: 3b81 c4be d104 b53e cfee 8cbf 1e64 493d
00000050: 58f1 603f 46c3 85bd 3551 0a3f 0115 f23f
00000060: a7cc a43d e710 143f 2ef8 84be 4dda 903f
00000070: d66f 1d3f 779f 033d b281 67bf 91e3 5ebf
00000080: 9696 28bf ac36 c1be cfb7 db3e ab1e 123d
00000090: cd36 cb3e 780d 583f d5ce 5f3e 733a 52be
000000a0: 0fd4 26bd 0a05 fa3d d07e 083e 2d60 34be
000000b0: d597 99be 95b3 ba3e 3447 433f 6730 1e3f
000000c0: 7f8c d2be d29f 6b3d 12c8 84bf 7bdd 12bf
000000d0: 87e2 86be 3e7b ab3e 5347 953f 61db d53e
000000e0: 178a 5cbe 3c3e 9e3e 7d51 e9bd 9345 eabe
000000f0: 6cd4 883e 7b6d 663e 4d50 42be c8ae 02bf
00000100: c431 b93e 5aa3 723e 85a0 053f 8fdf 7d3d
00000110: 2093 153f 1bc0 67be 1676 0d3f 0a02 d0bd
00000120: 143f d43c c300 fcbd 28cf debd a26f 58be
00000130: 0825 c1bd d2f2 e7be 7c6e 943e a45e 9cbd
00000140: b41c 503e 35c6 013f 183a df3d 5a06 303e
00000150: e8e3 89bd 4ac4 373d f55d dd3d 03be 9a3d
00000160: c8a1 4f3e adda 07bf 47c1 a3bd 71c9 d43d
00000170: 17b8 85be 81e8 913d 9576 903d d72c 333e
00000180: b22f 39be b25c 603f faa2 743e 063f 85be
00000190: 7728 95be 8cd0 5c3e ecbf 19bf 9b0d fa3d
000001a0: 216d 39bf 96dd 3a3e d99d 8b3e 498e 983e
000001b0: c1a8 e6be bc24 2ebf 923e 7e3d 3f8a 44bd
000001c0: fe53 323e cf26 30bf 51ce 983e 7c69 8c3d
000001d0: 6d39 d83d bb39 893f 9c62 323e 7781 8abe
000001e0: 6ffa 8cbd 5712 9d3e 4e50 0bbf 52aa 8cbe
000001f0: 75bd 3abd efae acbe dc00 923c 7833 f6be
00000200: 110d 373e cd7f c5bb f3bc 31bf ff92 213e
00000210: 4912 e53e 0967 8cbe 65e6 d2bd addc bebe
00000220: 8d47 05bf dd62 02bf 5fce d33e 3d35 f63d
00000230: d915 793c 361f 423e 95a4 213f 65ed 1d3f
00000240: 304b 9bbe 27be 0d3e 17e4 81bd 262a a0bf
00000250: c2da 483e b7fb 8fbe 52b9 3f3d c566 a93e
00000260: a696 c4be 9bec 18be 7fe2 153c 18d4 9bbd
00000270: e71d 8b3e ec08 fc3e dc96 f4be 4937 aebd
00000280: 6abd 25bf 962c ab3e 0445 a5bd 259d 20be
00000290: 1e2d 943c 1324 33be 9c50 7abe e2c4 38bf
000002a0: a73e 253f b857 c0be 959b e53e 3356 1d3f
000002b0: 77d7 a4bd 9fbb af3e a370 fbbd 576c b7be
000002c0: c389 94be 19c8 c13e c547 6dbe 4920 d83e
000002d0: f8a5 953e aa2a 2d3f 03c5 55bd 1565 bd3e
000002e0: 5f2c 05bf 1402 c73e 2431 643e 302c 833e
000002f0: 0f04 c7be 2110 243e f713 8dbd 61ff c5be
00000300: ca1b a53e b9d3 f63d 8004 9f3e ee1c 433f
00000310: 660a 04bf b2b4 d83d 8ef5 433c 0dcf d3be
00000320: 4d90 1fbe c864 1f3e 7b9a fdbd 770b 253d
00000330: 8a3c 5abe 058a 233f d47f 56bd 1cff 0a3f
00000340: 1223 a33e b5eb 11bf 1980 333f f471 423c
00000350: 6fe4 eebd 7dab d3be 44fb 17be 4f59 773d
00000360: c209 a4bc 9d05 243e 8445 213e c394 73be
00000370: 5b98 953e 39b0 49be cb23 d5be 8f41 3b3d
00000380: 5e66 e5be 9107 17bf 2361 cebc 0f35 3dbf
00000390: 0db7 47be a427 f0be bab5 cd3e 4e5f 893e
000003a0: 72a2 b5bc 21f7 52be b9cd 5dbf c104 b53e
000003b0: e7c2 3b3f 29f9 013e 941c 91bd 78b1 06be
000003c0: c7f0 a1bd 7010 80be 5679 b23d 3ac7 17bf
000003d0: 860c 5bbd fb61 313e 8188 723f 004c b3be
000003e0: 3c46 853f 3a93 da3d 1e42 1ebe 2528 e3be
000003f0: 7fcc 0abf 0361 2bbe 55cc f93e 8336 06bf
0.5267832 -0.06082075 -0.46185562 0.06790523 1.2432574 -0.6140791 0.30855012 0.3770544
-0.022956965 0.73901117 -0.19694068 0.37522772 -0.6144292 0.19089031 -0.6201961 0.43765798
-0.38379845 0.35355237 -1.1010379 0.049167745 0.8786826 -0.06531386 0.5403016 1.891266
0.08046847 0.5783829 -0.25970596 1.131662 0.61498773 0.0321345 -0.90432274 -0.8706599
-0.65854776 -0.37737024 0.42913672 0.03567378 0.39690247 0.8439555 0.21856244 -0.20530109
-0.04072958 0.122079924 0.13329625 -0.17614813 -0.2999865 0.36465135 0.7628052 0.61792606
-0.41122815 0.057525463 -1.0373557 -0.573692 -0.26344702 0.33492464 1.1662391 0.41768935
-0.21537052 0.30906856 -0.11392496 -0.45756206 0.26724565 0.22502701 -0.18975945 -0.51047945
0.3617078 0.23695126 0.5219806 0.06198078 0.5842762 -0.22631876 0.5525831 -0.10156639
0.025908984 -0.12304833 -0.10879356 -0.21136335 -0.09430891 -0.45302445 0.28990543 -0.07635239
0.2032345 0.50693065 0.108997524 0.17189923 -0.06732923 0.04486493 0.108089365 0.07555773
0.20276558 -0.5306805 -0.07995849 0.103899844 -0.26117012 0.07124425 0.07053868 0.17497574
-0.180846 0.8764144 0.23890296 -0.26024646 -0.29132435 0.2156393 -0.60058475 0.12209626
-0.7243214 0.18248591 0.27268866 0.29796055 -0.45050624 -0.680248 0.06207139 -0.047983404
0.17414853 -0.6880922 0.29844907 0.06856057 0.10557828 1.0720743 0.17420429 -0.270519
-0.06883704 0.30678055 -0.5441941 -0.27473694 -0.045590837 -0.33727214 0.017822675 -0.48086143
0.17876078 -0.006027198 -0.6942894 0.15778731 0.44740513 -0.2742236 -0.102978505 -0.37277737
-0.520623 -0.50932103 0.41368386 0.12021873 0.015202963 0.18957219 0.6314176 0.6169036
-0.303308 0.13842069 -0.06342333 -1.2512863 0.196147 -0.2812173 0.046807595 0.3308622
-0.38396186 -0.14934008 0.009148239 -0.07608813 0.2717125 0.49225557 -0.47771347 -0.085066386
-0.6474215 0.33432454 -0.08069804 -0.15684946 0.01808792 -0.1749423 -0.24444813 -0.7217542
0.64548725 -0.37566924 0.44845262 0.61459655 -0.08048909 0.3432283 -0.12277343 -0.35824844
-0.29011354 0.37847975 -0.23171909 0.42212132 0.29228187 0.67643225 -0.05218984 0.36991182
-0.5202083 0.38868773 0.2228437 0.2561965 -0.38870284 0.16021778 -0.068885736 -0.386714
0.32247764 0.12052102 0.3105812 0.7621602 -0.51578367 0.1058134 0.0119604 -0.41368905
-0.1558239 0.15565789 -0.123829804 0.040294137 -0.21312156 0.63882476 -0.052368 0.54295516
0.31862694 -0.57000285 0.70117337 0.011867989 -0.11664664 -0.41341773 -0.14841944 0.060387906
-0.020024184 0.16017766 0.15749174 -0.23787217 0.292178 -0.1969613 -0.4162887 0.04571682
-0.44804662 -0.5899592 -0.025192803 -0.73909086 -0.19503422 -0.46905243 0.4017771 0.26830524
-0.022172187 -0.20602085 -0.8664203 0.3535519 0.7334427 0.12692703 -0.07085529 -0.13153636
-0.07907253 -0.2501254 0.08714549 -0.5928837 -0.05347874 0.17322533 0.9473954 -0.3501892
1.0412059 0.106726125 -0.15454909 -0.44366565 -0.54218286 -0.16736226 0.48788705 -0.5242693

onnx::Conv_89 f4 [128]
00000000: a7ed 2bbf c43b d0bd d96e c3be bcdc 8e3e
00000010: 7328 ac3e 0080 c1b6 b46b 12be 2d4b 2b3e
00000020: 7005 483f 337a 29be de1a 09be 31a2 3fbf
00000030: 5b55 163f 69db 823e 54b9 a8bd ea7b 123e
00000040: 0469 3cbf 1a96 303e 5e5d fc3e 57a0 503f
00000050: 1c22 afbe ce5f bdbe 4132 ac3e 7b7c 7b3e
00000060: af1d 86bc e279 1b3f 69ab c23e b472 4abf
00000070: d056 883e 42e7 1bbe 1591 193f e44e bfbe
00000080: f824 2cbd edc0 403e 545e 33bc cb17 a53e
00000090: f70a 88bd 55ef 013f 04ee 3d3f 6c41 333d
000000a0: b4af 24bf 03b5 343e bf3d e83e c183 7f3c
000000b0: b71b a2bd 8463 623e 4492 e5bd 227b 223f
000000c0: c6b3 b2be 42d8 63bf 1c02 173e 0c57 e8be
000000d0: d88f f33d 36ba dd3e 19a9 9a3e 7ecd 8abe
000000e0: 2078 98be 894c 2c3e ade1 00be 9f2b 103f
000000f0: c99d 063f 3ad2 86be 5a0c a43e e673 2dbf
00000100: a85f 393e a4a0 c43e 4756 7cbd 6829 ef3e
00000110: b63d 0b3f eef4 953d c618 c6be 9d1f 2a3f
00000120: 50cc f53e 7f75 f33e 813e 41be 22ae b0be
00000130: fe6c 16bf 05e3 083f 38a7 953e 294a a2be
00000140: feac cfbd e24c 68be 997f 473f d7c0 15bf
00000150: 1b7d 923e 3e37 bd3e 4088 483e aa61 243f
00000160: b6f6 5cbe 3fdd 92bd 95b4 b8bd 7800 aa3c
00000170: c0f9 e33e be73 ba3e 524c 5f3e 8d8f 763e
00000180: 6c00 47bd 3c6d f53e d468 c53e 6021 113f
00000190: 13f5 7bbe 90ec 523e 1b9d fbbe f1b7 4bbf
000001a0: b627 703e e775 fcbe 2073 ed3e 07c1 533e
000001b0: 81d8 15be 5acb f93e df1b 2a3f 8e4c 9abe
000001c0: bbee 8abe d651 f03e 32c6 44bf dc21 123f
000001d0: c870 453c b355 b4be 0049 5e3a b407 993e
000001e0: a5f6 8abd bf4e dcbe ab61 16bd 830f 8ebe
000001f0: 5c5c c7be 1b6b 9b3e 55b9 0a3f cd58 053f
-0.67159504 -0.101676494 -0.38170508 0.27902782 0.3362461 -5.7667494e-06 -0.14298898 0.16727896
0.78133297 -0.16550522 -0.13389155 -0.7485686 0.5872399 0.25558022 -0.082384735 0.14305082
-0.7359774 0.17244759 0.49289984 0.8149466 -0.3420571 -0.36987156 0.3363209 0.24559204
-0.016371576 0.60732853 0.380214 -0.79081273 0.26628733 -0.15224937 0.59987 -0.37364876
-0.042027444 0.18823595 -0.010947783 0.32244715 -0.066427164 0.50755817 0.7419131 0.043763563
-0.643306 0.17647175 0.4535961 0.015595377 -0.079154424 0.22108275 -0.112095386 0.63469136
-0.3490278 -0.8900186 0.14746898 -0.45378911 0.118926704 0.4330613 0.30207136 -0.27109903
-0.29779148 0.16826071 -0.12586088 0.5631656 0.5258451 -0.26332265 0.32040673 -0.6775497
0.18102896 0.3840381 -0.061605718 0.46711278 0.5439104 0.07322107 -0.38690776 0.6645449
0.4800744 0.4755058 -0.188715 -0.34507853 -0.5876006 0.53471404 0.2922914 -0.31697205
-0.101404175 -0.22685578 0.77929074 -0.58497375 0.28611073 0.3695621 0.19583225 0.64211524
-0.21578488 -0.071711056 -0.09018818 0.020752177 0.44526482 0.3641643 0.21806458 0.24078198
-0.048584387 0.47934902 0.3855654 0.5669155 -0.24605207 0.20598054 -0.491433 -0.7957755
0.23452649 -0.49308702 0.46376896 0.20679103 -0.14633371 0.48787957 0.6644878 -0.30136532
-0.27135262 0.46937436 -0.7686492 0.57082915 0.012050815 -0.35221633 0.0008479506 0.2988869
-0.06785325 -0.43028829 -0.036714237 -0.2774621 -0.38937652 0.30355152 0.54189044 0.52088624
